dqn/runs/cartpole1.pt (torch, 273556 bytes, 9 tensors)

fc1.weight f4 [128, 4]
000000 40 bd 02 bc c4 66 80 3c 90 be af 3e 8a 18 ce bd
       -0.007979691 0.015674002 0.34325075 -0.10063274
000010 92 69 80 be f1 33 36 be 47 b0 42 b9 10 48 70 be
       -0.25080544 -0.17793252 -0.0001856695 -0.2346499
000020 2c 50 6e 3d a2 bc dd be 4b b2 33 3e 60 81 bf be
       0.058181927 -0.43307978 0.17548482 -0.37403393
000030 84 e6 86 be 73 54 72 be 86 48 00 3d 38 3d c5 bd
       -0.26347744 -0.23665027 0.031319164 -0.09630817
000040 3b 32 97 3c 13 b4 2f 3e 93 6b f9 be 3f ab 36 3e
       0.018456569 0.17158537 -0.48714885 0.17838763
000050 e4 90 78 be 15 cb f4 3e 6e 7c bb 3f b2 8c 39 3f
       -0.24274021 0.4781119 1.4647348 0.7248031
000060 60 22 69 bf 38 f4 12 be a1 76 8b 3f ee 41 b7 3e
       -0.9106808 -0.14350975 1.0895578 0.35792488
000070 53 3f d1 be 6c 47 ae 3e c8 ca fc 3e 1c bc 48 3e
       -0.40868625 0.34038866 0.4937346 0.19603008
000080 c6 c4 26 3f f6 e0 5b bd 4e 6f b6 bf 32 f6 b3 be
       0.65144 -0.053681336 -1.4252717 -0.3514877
000090 0b 7d 3c be 54 77 0e bf f1 c2 9f bf 61 81 3b bf
       -0.18407075 -0.5565083 -1.2481366 -0.7324429
0000a0 dc df 3e 3e db 8c 55 3d 41 3e d4 3f bf d3 e1 3e
       0.18640083 0.052136283 1.6581498 0.44106862
0000b0 0b cd 49 be b4 8e 9d 3e 27 a5 1a 3e 2b b0 96 3d
       -0.19707124 0.30772936 0.15102063 0.0735782
0000c0 55 20 0a 3f 90 5a f0 3c fa 8f c5 3d ac 9d 08 3e
       0.53955585 0.029340059 0.09646602 0.13341397
0000d0 94 2b e9 3e 30 e7 2e be 17 bf 16 bf 35 6d 02 3c
       0.4554106 -0.17080379 -0.5888533 0.007960607
0000e0 ef d8 c2 3e e8 d2 4e 3e cf 10 56 bf 23 4c a9 be
       0.38056132 0.20197642 -0.836194 -0.330659
0000f0 26 e8 3b 3e 4b 51 9c bd b4 03 9f 3e b4 14 b0 bd
       0.18350276 -0.07632693 0.31057513 -0.08597699
000100 0a 72 18 be cc 3d a0 3e cf 46 4b 3e 40 fb 0e be
       -0.14887252 0.31297147 0.1985123 -0.13963032
000110 0c b4 df bd 64 0a 96 3e c6 48 c5 3e a2 f9 b3 be
       -0.10923013 0.29304802 0.38532084 -0.35151392
000120 1d 94 7d be 3c d3 f5 3d 11 69 d2 be 14 c9 fc 3a
       -0.24763532 0.120031804 -0.41095784 0.0019286
000130 f0 90 ca be 09 7e 56 3e 75 64 a1 bd 2f 88 0a bd
       -0.39563704 0.20946516 -0.07880489 -0.03382128
000140 a2 8a f8 be 6d 24 a0 be 31 df 52 bf c8 78 dc be
       -0.48543268 -0.3127779 -0.82371813 -0.430609
000150 d2 92 8c 3e 16 06 5c be 55 20 4f bf 29 04 af 3e
       0.27455765 -0.21486697 -0.8090871 0.3418286
000160 5e f4 fd 3e 3d 2d 53 be c0 43 23 3e 5c 0a 8c be
       0.496005 -0.20622726 0.15943813 -0.27351654
000170 cf 9c 4c be b1 04 de bd c0 c3 e1 3e c7 fa 8e be
       -0.19981693 -0.108407386 0.44094658 -0.27925703
000180 1d d7 e7 be d0 5d c9 be 16 1f 41 bf 4d 6d bc be
       -0.45281306 -0.39329386 -0.7543806 -0.3680214
000190 ae 46 bc 3e cb 30 88 be 7e e2 bc be b0 26 a9 3e
       0.36772674 -0.26599726 -0.3689155 0.3303733
0001a0 94 73 95 3e 28 88 a8 3d 5c b1 4a 3e b2 37 5a be
       0.29189742 0.08229095 0.1979422 -0.21310309
0001b0 9f e9 e2 3e 0d ce 53 be a0 b3 d0 bd 8c 0f d2 be
       0.44318864 -0.20684071 -0.10190511 -0.41027486
0001c0 3d cf 9d 3e 0e 9b 0c bf 3a de 84 bf d2 3b 1b bf
       0.30822173 -0.54924095 -1.0380318 -0.60638154
0001d0 b4 f0 f7 be ee 4f d5 3e db 40 79 3f ae 64 8a be
       -0.4842583 0.41662544 0.97364587 -0.27029938
0001e0 c0 ed b9 3e f5 80 93 3e d4 f8 be bf 85 84 13 bf
       0.363142 0.28809324 -1.4919686 -0.57624084
0001f0 60 8c 54 3d 60 ea 7c 3d fa d9 f6 be 00 65 31 3d
       0.051891685 0.061746955 -0.48213178 0.04330921
000200 3f c1 16 3f b6 c1 0f bf a1 1c aa bf 42 3d 4d bf
       0.5888862 -0.56154954 -1.3289987 -0.80171597
000210 b0 9a ed 3d 7b 4e b0 be 14 cb ad bf cc 9a d3 be
       0.1160177 -0.34434876 -1.35776 -0.41329038
000220 f3 a8 39 bd bf 75 ae 3d 72 4f 18 bf a8 10 ae 3e
       -0.04532714 0.08518552 -0.59496224 0.33997083
000230 09 13 8b bf 55 d7 c4 3d 45 37 85 3f 7a b2 99 3e
       -1.0865184 0.09611384 1.0407492 0.3001898
000240 9b cb b6 be 04 eb bb 3e d7 d5 22 3f 35 04 4f be
       -0.35702214 0.3670274 0.63607544 -0.20216449
000250 9f 80 11 3f 9f 05 b3 be a2 29 d5 be dd 33 bc be
       0.56836885 -0.34965226 -0.41633326 -0.3675832
000260 22 a4 b0 3e 54 a0 21 bf 8d b9 7c be 02 ae bb be
       0.34500223 -0.63135266 -0.24680157 -0.36656195
000270 5d fb 57 be 24 b0 32 3e d3 bb 8b bf a1 db 32 bf
       -0.21091981 0.17450005 -1.0916694 -0.6986638
000280 06 86 fd be 08 7e 2a 3f 3d 0d 97 3f 02 30 3c 3f
       -0.49516314 0.6659856 1.1800915 0.73510754
000290 b3 63 df 3e 7d c2 91 bd b3 ab 29 3e f8 26 16 3e
       0.43630752 -0.07117174 0.16569404 0.14663303
0002a0 37 72 5f 3e 3e 29 c7 be c1 5c 5f 3f c8 61 a8 3d
       0.21820913 -0.38898653 0.87250906 0.08221775
0002b0 b4 ab bc 3e db c5 ec 3e 90 7c cf bd 49 58 48 be
       0.3684975 0.46244702 -0.1013118 -0.19564928
0002c0 50 3a 9b bf 34 9f dc 3d a2 65 10 3f 42 06 06 3f
       -1.212717 0.10772553 0.5640508 0.523533
0002d0 78 81 22 3f ab 63 2d bf ec c6 fb be ed cf ac 3e
       0.63478804 -0.67730206 -0.49175203 0.33752385
0002e0 d8 16 24 3f 3a 90 01 bf b5 d3 70 be 51 f4 6c 3e
       0.64097357 -0.506107 -0.2351826 0.23140074
0002f0 cb 2a fe be 97 9e fc 3e 4e 41 70 3f fd 88 74 be
       -0.49642023 0.49339744 0.9384965 -0.23880382
000300 92 50 88 be 84 43 c3 3e 85 5c 4f 3e 31 ba fa 3c
       -0.2662397 0.38137448 0.20250137 0.030606361
000310 af 1b bb 3e a8 db 36 be cc 3c 62 bd c1 a5 8f 3e
       0.36544558 -0.1785723 -0.05523376 0.28056148
000320 62 ed a3 3e 83 06 b5 bc e5 10 18 be fb 9c b3 3e
       0.32017046 -0.022097832 -0.14850195 0.35080704
000330 e1 5c 7d be 43 51 2f bd 57 5f 85 3d 35 12 58 be
       -0.24742462 -0.042802107 0.06512325 -0.21100695
000340 1d 8e 4b 3f 9c 4c 0b 3d 3b 0e 94 bf 13 8a 29 be
       0.7951372 0.034008607 -1.1566843 -0.16556577
000350 a2 29 c6 bd 42 e7 2b 3f e8 5c 18 3f fa 62 13 bd
       -0.096759096 0.67149746 0.59516764 -0.035983063
000360 33 2a ae be d7 2d 97 3e aa e2 b8 be 3f 5f 31 3c
       -0.3401657 0.2952716 -0.3611043 0.010825931
000370 03 ba 78 be 05 2b c9 3e 3c d2 9c 3e dc 3b bb be
       -0.24289708 0.39290634 0.30629146 -0.36569107
000380 ab d8 02 3c f7 ad f2 3e 38 51 b6 be 29 76 20 3e
       0.007986228 0.4739835 -0.3560884 0.15670075
000390 af 21 46 3e 22 8f 79 3d a9 23 9b be ad 32 67 3e
       0.19348787 0.060927518 -0.30300644 0.22577925
0003a0 23 09 82 3f b8 bd 23 bc 00 06 23 bf 29 f5 c2 be
       1.0159038 -0.009993963 -0.6368103 -0.38077667
0003b0 cc d4 42 bf 35 ac 2b bf fa 89 cc bd ea 80 bf be
       -0.7610595 -0.6705964 -0.099872544 -0.3740304
0003c0 13 da 81 be ec a9 86 3e d4 bc 9b 3d af 69 89 bb
       -0.2536169 0.26301515 0.076043755 -0.0041935067
0003d0 a2 9e ee 3c fd 44 27 3e 57 23 2c 3f 8e c3 7d be
       0.029128376 0.1633491 0.67241424 -0.2478163
0003e0 a0 ae f3 be 2c ab e3 3e dd 52 c0 3f 72 98 30 3f
       -0.47594166 0.4446653 1.5025288 0.68982613
0003f0 2f 98 b8 be 69 ac 88 3e 19 c6 29 3e 61 86 6e be
       -0.36053607 0.2669404 0.16579475 -0.23293449

fc1.bias f4 [128]
000000 31 cb 40 3f 96 1a 31 3f db 80 41 3f 41 94 f9 3e
       0.75310045 0.6918119 0.7558724 0.4874592
000010 0a d4 de 3e 5c c7 cb be a2 78 15 3d 57 43 cb 3e
       0.43521148 -0.39800537 0.036491998 0.39699814
000020 a5 37 5a be 4b fe a7 be 65 c0 af be 6a 7f 13 3f
       -0.21310289 -0.32811198 -0.34326473 0.57616293
000030 5b 13 86 be 68 64 64 be 08 ff b4 be 32 de ae 3e
       -0.26186642 -0.22303927 -0.35350823 0.34153897
000040 cd 8d 46 3f 35 9c f0 3e b2 0f f7 3e 30 83 3a 3f
       0.7756012 0.46994177 0.48254162 0.72856426
000050 9b eb 44 be d9 67 db 3e a1 e8 0e 3f 39 9e 26 3f
       -0.19230501 0.42852667 0.55823714 0.6508518
000060 ca 61 03 be 2b e0 46 3f 01 87 44 3f cd c4 3b 3f
       -0.12830272 0.77685803 0.767685 0.7334717
000070 62 3f 4c be 49 6e f5 3d 5f 90 77 be fc 63 f0 be
       -0.19946054 0.11983926 -0.24176167 -0.46951282
000080 34 cb ec be 00 6c 9a 3e 3a e6 13 3f e6 37 3d be
       -0.46248782 0.30160522 0.5777317 -0.18478355
000090 81 e5 06 3e f0 7c 32 3f 37 07 f1 3e 5b d0 67 be
       0.13173486 0.6972189 0.47075817 -0.22638075
0000a0 31 93 96 be e8 01 0f 3f 18 a7 c6 be 9f 29 fc be
       -0.29409173 0.55862284 -0.38799357 -0.49250504
0000b0 17 80 be be 91 4b 03 3f ca 96 1f 3f fe 84 9a bd
       -0.372071 0.5128718 0.6233946 -0.075448975
0000c0 23 a6 fd 3e 39 bc 3e 3f 45 9e 33 3f 40 ee 32 3f
       0.49540815 0.74505955 0.70163375 0.6989479
0000d0 7b a0 9e 3e 49 59 07 3e 1b 84 0d 3f 88 5d be 3e
       0.30981812 0.13217653 0.552797 0.37180734
0000e0 ab fd c9 be 21 2f 0f 3f 54 10 42 be 61 85 54 be
       -0.39451346 0.5593129 -0.18951541 -0.20754005
0000f0 f9 41 89 3d 3a 44 16 3e 6a 19 d2 be d4 89 13 3f
       0.067020364 0.14674464 -0.41035014 0.57632184
000100 4f 66 a8 be e7 27 18 be 4c 04 db be 43 7b 32 3f
       -0.32890555 -0.14858972 -0.42776716 0.6971933
000110 b2 bf f1 be 02 e9 cc 3e f5 3f 53 be 99 11 08 bf
       -0.47216564 0.4002152 -0.20629866 -0.5315185
000120 4b 49 5d 3d c0 cb 19 3f 1a 88 67 be c4 b7 8a bd
       0.054024976 0.6007652 -0.22610512 -0.06773332
000130 70 09 a1 be b7 cf 32 3f e6 b9 09 bf 71 65 cd 3e
       -0.31452513 0.698482 -0.53799284 0.40116456
000140 ab c1 2a 3f 33 ca b4 bc b2 bb a2 3e 66 0e b0 be
       0.66701764 -0.022069072 0.31783825 -0.34385985
000150 b4 43 56 be 78 38 59 be 8c de fc bd b6 e4 27 be
       -0.20924264 -0.21212947 -0.12347135 -0.1639584
000160 c7 4b 41 be b7 af 8b 3e 09 66 06 3f 00 cc 03 3f
       -0.18876563 0.27282497 0.52499443 0.51483154
000170 60 b7 80 3d 22 38 2a be b5 fa 07 3f f7 b1 e6 3e
       0.06284976 -0.16622975 0.53116924 0.4505765
000180 c2 98 b1 be 7a 85 e9 be 26 88 0c be 64 a2 a8 3e
       -0.34686857 -0.45609647 -0.13723812 0.32936394
000190 ad 06 82 3e 1e eb 56 be 37 3a 3c 3f b2 a2 45 3d
       0.25395718 -0.20988128 0.7352633 0.04825086
0001a0 e6 e9 36 3f 59 45 15 3f d1 3c ee 39 9b c5 24 be
       0.7145065 0.5830894 0.0004544021 -0.16091006
0001b0 82 79 c0 3e 3e 18 30 be 27 5f 28 3f ad 38 22 3f
       0.37592703 -0.17196748 0.6577019 0.6336773
0001c0 13 e8 1b 3f cd 2b 45 be 27 8c 59 3e 18 5c 81 be
       0.6090099 -0.1925499 0.2124487 -0.25265574
0001d0 a7 69 48 3f 24 a5 b2 be 2a 09 57 bd cc 71 ba be
       0.7828621 -0.34891617 -0.052498974 -0.36414945
0001e0 43 88 01 3f 1e 78 a9 be f1 4c 24 3f 59 bb 31 be
       0.50598544 -0.33099455 0.64179903 -0.17356624
0001f0 57 5e 39 3f bd 4a 39 3f 0c ca 35 3f a5 71 20 be
       0.72409576 0.72379667 0.71011424 -0.15668352

fc_value.weight f4 [256, 128]
000000 99 34 a9 3e fa dc 90 3e e2 f5 9d 3e f9 39 50 3e
       0.3304794 0.28293592 0.30851656 0.20334615
000010 1f a8 76 3e 14 01 66 bf 8b ba 9f be 2d 7f 70 3e
       0.2408757 -0.89845395 -0.31197008 0.23486014
000020 a1 07 ed be 6d 7c 5f bf 66 cb 1a bf 8f 3d 29 3e
       -0.46294883 -0.87299234 -0.6046661 0.16527389
000030 dc 81 85 bd b8 9a d7 3d 0d 8b a3 be b9 ab 7e 3e
       -0.06518909 0.10527557 -0.31942025 0.24870194
000040 bb 50 0a 3e a8 24 3a 3e b8 c2 73 3e 7b 1e 8f 3e
       0.13507359 0.18178046 0.23804748 0.27952942
000050 0f b0 f1 be 10 39 0a 3e 01 bc a9 3e 0d 94 b0 3e
       -0.47204635 0.1349833 0.33151248 0.34487954
000060 cf 09 03 bf 3e de 29 3e 53 a7 53 3e 3b da 51 3e
       -0.5118684 0.16588685 0.20669298 0.20493405
000070 37 c4 f1 be 44 b6 84 3e a4 00 8a be 1a 0d 74 bd
       -0.47220013 0.25920308 -0.26953614 -0.059582807
000080 d0 15 5d bf 3b d2 bd be 4f 32 78 3e d3 91 35 bf
       -0.8636141 -0.37074456 0.24237941 -0.70925635
000090 5e ba 41 3e 43 54 99 3e 98 56 a2 3e aa 33 02 be
       0.1891875 0.299471 0.3170669 -0.12715021
0000a0 39 b0 47 bf 7c b1 f7 3d 3d 21 c8 bc 4b 0b 82 bd
       -0.7800327 0.12094399 -0.024429912 -0.0634981
0000b0 35 9e 4b bf e5 c5 62 3e ac 7a 2a 3e cb ed e0 3e
       -0.7953828 0.22145803 0.16648358 0.43931422
0000c0 bd fa 87 3e ea 67 49 3e dd 4f 0f 3e 2c 0d 65 3e
       0.26558486 0.19668546 0.13995309 0.22368306
0000d0 4d 1e 69 be 19 29 4b 3e 85 cf ed 3d a2 54 af 3d
       -0.22765465 0.19839896 0.11611847 0.08561064
0000e0 4b ae dc 3c 1a 63 51 3e 46 69 d9 be 40 8c 35 bf
       0.026938578 0.2044796 -0.4246313 -0.7091713
0000f0 0f e2 65 3c 78 ef 43 3e 51 ba 52 bf 8c e8 39 3e
       0.014030947 0.19134319 -0.82315546 0.18155116
000100 bd 5b 2a bf 71 48 16 bf d3 c2 ff be 90 ef 6d 3e
       -0.6654623 -0.58704287 -0.49953327 0.23235917
000110 9b ae ab 3d 95 65 1b be ef e3 ad be 8a 37 c3 bd
       0.08382913 -0.15175469 -0.33962962 -0.095320776
000120 cb 24 8b 3b c2 19 c3 3e 08 67 e9 be 26 fd ed be
       0.0042463294 0.3810559 -0.4558642 -0.464822
000130 00 11 20 bf 01 07 30 3e 74 6e 98 be 89 a9 c9 3e
       -0.6252594 0.17190172 -0.2977177 0.39387158
000140 4d b6 98 3e da 1c 52 bf bf ef b3 3e aa 57 35 bf
       0.29826584 -0.82075274 0.3514385 -0.7083689
000150 ff 64 78 be aa f6 3c bf 7a 32 4c bf 95 04 11 bf
       -0.24257277 -0.7381388 -0.7976452 -0.56647617
000160 67 04 91 be 8e 06 cc be a1 88 3c 3e 92 7f 99 3e
       -0.2832367 -0.3984875 0.18411495 0.2998014
000170 83 16 c2 be 54 9a 96 be 92 c7 03 3e cd 16 5b 3e
       -0.379078 -0.29414618 0.12869099 0.21395417
000180 e1 2b 52 bf 8c 5d 6e bd d3 27 54 bf 38 2f 15 3e
       -0.82098204 -0.058194682 -0.82873267 0.14568794
000190 d7 9c 2e 3e 63 5c 27 bf 6b 1b 97 3e 4d 4e 1d 3f
       0.17052017 -0.65375346 0.29513106 0.614476
0001a0 84 1c 6a 3e cf 10 67 3e 87 ee 7c be 85 7c 1c bf
       0.2286244 0.22565006 -0.24700366 -0.611275
0001b0 ee 5c 8b 3e a4 19 61 bf 5c 5c 86 3e 2b 27 1e 3e
       0.27219337 -0.8792975 0.2624234 0.15444629
0001c0 bd 3e 75 3e 66 bb d5 be 71 d2 3b 3e fd d5 34 bf
       0.23949714 -0.41744536 0.18341996 -0.7063902
0001d0 1d a9 2d 3e 2f 03 57 bf 91 19 b5 be 1d df 43 bf
       0.16959043 -0.8398923 -0.35371068 -0.7651232
0001e0 42 41 50 3d 16 06 75 3d 85 17 4e 3e 65 f7 16 bf
       0.050843485 0.059820257 0.2012616 -0.58971244
0001f0 aa e7 1e 3e a9 6b 81 3e 05 7b 44 3e e4 2f 36 bf
       0.1551806 0.2527745 0.19187553 -0.71166825
000200 44 a3 4a bd 75 08 1a b7 b8 83 df 3c fa 39 94 bd
       -0.04947211 -9.181084e-06 0.027284488 -0.07237621
000210 43 4b ab bd 7e 8a a8 bd 9d 72 5e bd f4 2c 8f bc
       -0.083639644 -0.0822954 -0.054308522 -0.01747749
000220 14 32 8b bd 27 3e 29 bd 66 19 b0 bd 94 49 c8 bc
       -0.06796661 -0.04131904 -0.08598594 -0.024449147
000230 b0 f1 c0 bd 16 e3 5c 3d 35 9b 0e bd ac 7a e7 3b
       -0.09421098 0.053927504 -0.034815986 0.007064184
000240 d4 9a c1 3b 9b 9d 11 3c c7 21 aa bc 71 e3 02 3d
       0.0059083495 0.008887674 -0.02076806 0.031955186
000250 6e ee 27 bd 7e 57 67 3d 66 90 1e 3d 90 a9 c7 bb
       -0.04099887 0.056479923 0.038711928 -0.0060932115
000260 65 f9 8a 3d a8 98 13 3c c6 41 d0 bd ae bd 73 bd
       0.067858495 0.009008564 -0.10168795 -0.059507065
000270 7b 99 c3 bd ab c3 1f 3d 22 97 95 3c 6b 08 82 3d
       -0.095507585 0.039004963 0.018260542 0.06349262
000280 93 0b 7c 3d 3a 5e c4 3b 60 56 17 3b 05 50 98 bb
       0.061534476 0.005992678 0.0023092255 -0.004648211
000290 4a 85 8b bd 5e eb d1 bc 8a 78 9b bd 5b f9 8b 3d
       -0.06812532 -0.025624927 -0.075913504 0.0683467
0002a0 34 27 98 3b b4 3c 35 bd 59 47 2d bd 03 91 37 3d
       0.0046433453 -0.044247344 -0.04230437 0.04481603
0002b0 90 dc 4a bd 3b c4 94 b9 c6 d0 1b bd e9 5f 3f 3c
       -0.04952675 -0.00028374963 -0.0380409 0.011680582
0002c0 a9 24 58 3d 5f f0 78 bd 25 99 c3 3c 89 8a 73 bc
       0.052769337 -0.06077611 0.023876736 -0.014864572
0002d0 de 3e 41 bd 0c 53 65 3c 41 97 50 bd 8a 93 bc 3c
       -0.047179095 0.013996851 -0.050925497 0.02301957
0002e0 00 48 7a bc ca d4 44 3d 39 e7 9b 3d f3 37 b4 bd
       -0.015275955 0.048054494 0.076124616 -0.08799734
0002f0 48 02 0d bd b9 28 e9 ba 2e a4 00 bd 5d 89 db 3c
       -0.034426004 -0.0017788626 -0.031406574 0.026798898
000300 aa b6 f3 bc 91 bc 29 3c 68 5b 0a 3d b1 ef 6e 3c
       -0.029750187 0.010359899 0.033778578 0.014583514
000310 fd 31 6f bd 71 7f 6c bd d1 4e 1c 3d c3 9c 08 bd
       -0.058397282 -0.057738725 0.038161103 -0.033352625
000320 39 6c 8d bd f8 b2 8f bd 01 ff 97 3d 2a ee 90 bd
       -0.069054075 -0.070165575 0.07421685 -0.07076676
000330 11 e4 06 3d 1c b6 20 3d 83 90 04 3c 76 27 aa 3c
       0.032932345 0.039236173 0.008091095 0.02077077
000340 c2 2e 30 3d 31 7d 81 3c be 51 c9 bd 3f 5d a5 bd
       0.04301334 0.015806766 -0.09830044 -0.08074426
000350 e1 33 24 bc 00 2b e0 3a 93 5f 9b bd 00 a8 27 3c
       -0.0100221345 0.0017102659 -0.07586589 0.010232925
000360 16 0e 31 bc 8c 20 be 3c 75 79 f6 bb a0 58 46 3c
       -0.010806581 0.023208879 -0.007521803 0.012106091
000370 f0 e3 5d 3d 35 f0 99 bd ce a7 9a bd 57 5f 8a 3d
       0.054172456 -0.07516519 -0.075515375 0.06756466
000380 2f df 82 3d a6 38 0f 3d d5 3e b4 bc 1a 8f 7a 3d
       0.06390225 0.034966134 -0.022002617 0.06117163
000390 03 c2 ba bd 00 2a 83 3a fd 3a a7 bd 1b 9c 6d bd
       -0.09119036 0.0010007024 -0.08165548 -0.058010202
0003a0 ea d9 b8 bc f8 01 8f bd 42 8a 52 bd b5 6c 27 bd
       -0.022564847 -0.069827974 -0.051401384 -0.040875155
0003b0 0d 27 15 3c 00 e0 01 b7 fb ee 6d 3c a3 bf 99 bc
       0.009103549 -7.741153e-06 0.014522309 -0.018768137
0003c0 9e e0 88 3c b1 33 8d 3d e4 eb 14 3d 7f 6f 7e bd
       0.016708668 0.06894625 0.036357775 -0.06211805
0003d0 dc fb 38 3d 58 d2 85 3d b8 f8 51 bd f1 2c cb bc
       0.045162067 0.065342605 -0.051262587 -0.024801703
0003e0 05 92 31 bd 90 f3 b6 3b f0 7e c9 3c c7 b9 b1 bd
       -0.043352146 0.005583234 0.024596661 -0.08678012
0003f0 6c 08 26 3d 54 19 fc 3c e6 3b 7a 3d 26 b6 35 bd
       0.040535375 0.030773796 0.06109228 -0.044363163

fc_value.bias f4 [256]
000000 cb 0c 8a 3e 38 cf 1a bd 56 18 87 3b ec c4 99 3e
       0.26962885 -0.037795275 0.004122774 0.30033052
000010 f8 6a 97 3e 26 c2 6d 3d 39 a9 9e bd e4 23 a2 3e
       0.29573798 0.058046483 -0.077471204 0.31668007
000020 cb 5a fd 3c 95 99 a5 3e e5 f8 93 3e ea a2 15 bc
       0.030927083 0.32343736 0.2890083 -0.00913308
000030 04 5d a8 bd 87 77 a3 3e 91 43 52 3e 26 07 a9 bd
       -0.08220866 0.3192713 0.20533587 -0.082533166
000040 75 73 93 3e b5 18 74 bd 1c b0 87 bd 1f f5 59 3e
       0.28799024 -0.059593875 -0.06625387 0.21284913
000050 57 1d a7 bd 21 e1 12 bd 12 11 85 3e f0 d0 0c bc
       -0.08159893 -0.03585923 0.25989586 -0.008594736
000060 2e e4 97 3e 0e ed 3e 3d 70 5f b3 bd f6 af 9f 3e
       0.29666275 0.04661279 -0.08758438 0.31188935
000070 9d 4d 27 bd c0 64 94 bd e9 45 17 39 98 9d 73 3e
       -0.040845502 -0.07245779 0.00014426526 0.23790586
000080 e9 03 13 bd cc ea 8c 3e 2e 0c fd bc ed 43 a2 3e
       -0.0358924 0.27522886 -0.030889597 0.31692448
000090 e6 43 88 3e 04 9f ed 3c 86 94 67 3d 09 28 0f bd
       0.26614302 0.029006489 0.056538127 -0.03495029
0000a0 9c a8 6c 3e 32 6d 5c 3e 6a 8c 98 bd 38 f2 24 bc
       0.23111194 0.2152603 -0.07448657 -0.010067515
0000b0 1f 74 7e 3e b7 c5 0e 3e 99 a5 a5 3e 0b c9 93 bd
       0.24848984 0.1394261 0.32352903 -0.0721608
0000c0 a5 6a 58 bd fe dd 2f 3d 6b a0 44 3e 52 92 51 3c
       -0.05283608 0.042936318 0.1920182 0.012791233
0000d0 86 91 46 bd 7e f1 30 bd ff 37 9e 3e ad 2c 73 3e
       -0.048478626 -0.043199055 0.30902097 0.23747511
0000e0 00 a6 ce bb c3 34 5a 3e 74 c7 8c 3e ef b8 83 3d
       -0.00630641 0.2130919 0.2749592 0.06431758
0000f0 1a b0 ad 3e 86 91 28 3b e8 42 6a 3e 64 e4 5f bd
       0.33923417 0.0025721504 0.22877085 -0.05466117
000100 4a 9f cc 3c 89 48 6d b9 35 77 87 3e e3 55 36 bd
       0.024978299 -0.00022629103 0.26458135 -0.0445155
000110 61 ab a2 3e a7 89 a2 bd 01 32 82 3c 61 6d 9c 3e
       0.31771377 -0.07936411 0.015892984 0.305522
000120 56 76 79 3d c3 48 96 3d db 4e 9f 3c 5f 1c 92 3e
       0.06090387 0.07338097 0.01944678 0.2853727
000130 92 52 86 bb ad 94 9a 3e 6e e2 a1 bd a2 ae 85 3e
       -0.0040991986 0.30191556 -0.07904516 0.26109797
000140 51 7e 31 3e 67 11 50 3e 83 e8 9d 3e b6 93 5f bd
       0.17333342 0.20319138 0.30841455 -0.054584228
000150 3c a3 cf 3c ba b2 aa 3e a7 b4 94 3e 8c 92 8b 3e
       0.02534639 0.33339483 0.29044077 0.27260244
000160 ca 25 d6 bc 2f 29 ff 3d 58 f1 b9 bd a3 96 13 bc
       -0.026141066 0.12459027 -0.09079236 -0.009008083
000170 61 d1 90 3c 41 88 7f 3e 62 e3 1d bd 70 6c c2 bd
       0.017677965 0.2495432 -0.038546927 -0.09493339
000180 09 e3 2e bd 03 2f b2 3d 92 f9 48 3d 61 89 8f 3e
       -0.042696986 0.08700373 0.049066134 0.280345
000190 78 05 a9 bd 0b d7 97 3e f8 41 a6 3e 63 06 91 bd
       -0.08252996 0.29656252 0.32472205 -0.07081296
0001a0 4b 7d a4 bd da 73 45 3e 9b 62 87 3e 56 36 50 3e
       -0.0803171 0.19282475 0.26442418 0.20333228
0001b0 01 5d 1e bd da 5a 57 3e 00 43 a7 3e cc 84 b5 3e
       -0.038662914 0.21030751 0.32668304 0.35452878
0001c0 00 a6 9a 3c ac 4b 91 3e 7a a3 a8 3e e2 af 05 3d
       0.018877983 0.28378046 0.32937223 0.032638438
0001d0 7d b8 e7 3b b9 8b 54 3e 6c 8b 90 3e 33 9d 23 3d
       0.0070715533 0.20756425 0.2823137 0.03994484
0001e0 7a 2b 98 bc 03 f6 c6 bd 39 50 07 bd cf ae b0 bd
       -0.018575419 -0.09714892 -0.03303549 -0.08627092
0001f0 eb 41 fa bd 03 6c 4d 3e 88 77 42 bd e8 6d 50 3e
       -0.12219604 0.20060734 -0.047477275 0.20354426
000200 55 c9 29 bc 4f cc e4 3c 4b 71 3f 3e 48 6f 73 3d
       -0.010362943 0.027929453 0.18695562 0.059432298
000210 9a 89 cb bd b8 57 ca b8 8a 1b c1 bd 31 16 ae 3d
       -0.09938355 -9.6484495e-05 -0.09429081 0.085003264
000220 ec 55 93 3e 33 52 11 be 24 b9 ff bd 51 86 13 bb
       0.2877649 -0.14191513 -0.12486485 -0.0022510479
000230 00 98 77 3e da 85 54 bd fd 75 82 bd 35 9f 27 3d
       0.24179077 -0.051885463 -0.06370161 0.040923316
000240 5d a7 80 3e 14 8d 95 3e 6e 10 22 3d 29 a0 3f bd
       0.25127688 0.29209197 0.03956645 -0.0467836
000250 8d 35 9f 3e 5d a5 76 3e 1a f3 0b 3d d8 d3 a2 3e
       0.31095544 0.24086519 0.034167387 0.3180225
000260 52 4c 70 bd 33 96 17 3d 80 83 cb bd a0 35 87 3e
       -0.058666535 0.037008476 -0.09937191 0.264081
000270 4b e5 95 3e d2 71 81 bd 2e b0 b9 3e b0 cb 8c 3e
       0.292765 -0.063205376 0.36267227 0.2749915
000280 81 58 71 3e 43 96 aa bd 56 9c 86 3e e9 ed b1 3e
       0.23568918 -0.083294414 0.2629115 0.34751824
000290 57 46 60 3e 35 0a 2b 3e c5 e9 3d 3e e9 a4 8c 3e
       0.21901833 0.16703112 0.18546207 0.27469566
0002a0 b2 21 47 3e 53 44 9e 3e 0e a7 a7 bd 5d dd a8 3e
       0.19446447 0.30911502 -0.0818616 0.32981387
0002b0 e1 32 5e 3d c1 e8 33 3a 7a fd 81 3e d4 d8 ae 3e
       0.05424774 0.0006862991 0.253887 0.34149802
0002c0 07 80 3b 3d 16 55 45 bd 84 58 7f 3e 81 71 82 3e
       0.045776393 -0.048176847 0.2493611 0.25477222
0002d0 40 87 a5 bc 66 78 aa bd f9 77 a5 3e 20 34 1b 3c
       -0.020206094 -0.083237454 0.32318094 0.009472877
0002e0 68 a9 f8 bc 4b 18 92 3e 6b e0 5d bd ea e5 84 3d
       -0.030354217 0.2853416 -0.0541691 0.06489165
0002f0 c1 54 cf bd 4b 28 7e 3e bc 7b a0 3e a8 7c 90 bd
       -0.101235874 0.24820058 0.31344402 -0.07055026
000300 05 7e f4 3c a3 da f1 bd 28 ce 4f 3e 56 22 86 3d
       0.029845247 -0.1180928 0.20293486 0.06549518
000310 81 61 6f bd 59 cc bc bc 65 96 27 3d 85 51 8d 3e
       -0.058442596 -0.02304666 0.04091491 0.27601257
000320 78 6f 9d 3d 16 a5 94 bb 7d bf c8 bd 60 a6 77 bb
       0.076872766 -0.0045362813 -0.098021485 -0.0037788376
000330 9a 6a 73 3e 13 8d 9c 3e e7 c6 8b bd 06 0d 7b bc
       0.23771134 0.3057638 -0.06825047 -0.015322929
000340 f6 92 ae 3e b6 cf ac 3e e2 11 24 bd ad 5a a9 bd
       0.34096497 0.3375222 -0.040056117 -0.08269248
000350 4f ed 7b 3e 28 e9 8d 3e 64 58 72 3e a0 f4 f2 bd
       0.24602245 0.27716947 0.23666531 -0.11863065
000360 db 15 a2 3d a5 b2 87 3e bf ce 34 bd ce ce 96 bd
       0.07914325 0.26503482 -0.04414248 -0.073636636
000370 80 16 a5 3e aa 98 aa 3e 0c 8f 84 3e ae 45 96 3d
       0.3224373 0.33319598 0.25890386 0.07337509
000380 56 77 a7 3e 96 84 c0 bd ff 71 a7 3e 0a ff a0 3e
       0.32708234 -0.09400289 0.3270416 0.3144458
000390 3f d2 65 3e 07 5e da 3c 69 f6 83 3c 18 5e 77 3e
       0.22443484 0.026656164 0.016108708 0.24156988
0003a0 e6 5b 40 3d 33 52 34 3d 1f 74 68 3e 19 00 67 3d
       0.04696264 0.044023704 0.22700547 0.056396578
0003b0 fb 53 a3 3e 56 96 83 3e 8a 4f 3c 3c e3 87 98 3e
       0.3190001 0.25700635 0.011493573 0.29791173
0003c0 01 0e ab bd dc db 9d 3e 22 0f 42 3e bf ce 8e 3d
       -0.083522804 0.30831802 0.18951085 0.069730274
0003d0 35 30 4d bd 77 34 f2 bc 9d 1c 28 bd 5a a9 8e bd
       -0.050094802 -0.029566033 -0.041042913 -0.06965895
0003e0 fd e1 90 3e 98 52 cf 3a 71 b3 8e 3e 4c 16 37 bd
       0.28297415 0.0015817462 0.27871278 -0.044699
0003f0 1c 58 81 bd 70 f5 95 3e 3b 3c 53 3d 6c e1 98 3e
       -0.06315634 0.29288816 0.051571112 0.29859483

value.weight f4 [1, 256]
000000 e0 5e 5e 3f d9 c7 1c bd e6 3d 76 bf 51 c5 5d 3f
       0.8686352 -0.038276527 -0.961882 0.86629206
000010 50 64 64 3f 4b 78 39 bd 97 aa fc bc 4d 74 53 3f
       0.89215565 -0.045280736 -0.030843062 0.82599336
000020 10 38 cb bc b8 32 4b 3f aa 79 4d 3f fa b2 48 bc
       -0.024807006 0.79374266 0.8026377 -0.012249703
000030 7f a1 b3 bc ce ec 79 3f 8c 1b 43 3f 96 bd e2 bc
       -0.021927593 0.9762696 0.7621391 -0.027678292
000040 78 08 4e 3f eb 74 12 bd cb ed 4e bf 92 ce 50 3f
       0.8048167 -0.035756033 -0.80831593 0.815652
000050 68 be 00 bd 30 64 50 bd 13 0b 66 3f ef 00 17 bd
       -0.031431586 -0.050876796 0.8986065 -0.036866125
000060 1c 98 65 3f 57 58 9d bc 80 3f 8c bc 1d 6f 70 3f
       0.89685225 -0.019207163 -0.017120123 0.93919545
000070 df 1d 52 bc b7 66 05 bd bd e8 fd bc f8 9f 5e 3f
       -0.012824505 -0.03256866 -0.030994767 0.8696284
000080 3c f9 a3 3b 4e c0 63 3f 43 a4 c9 3a d8 fa 4e 3f
       0.0050040763 0.8896531 0.0015384037 0.8085151
000090 d2 1e 60 3f c9 1e ac bc 3f 8c f4 bc 65 5f 93 bc
       0.8754703 -0.021010773 -0.02985203 -0.017989824
0000a0 3f c2 53 3f 86 83 5b 3f 04 aa d1 3b dc ad 87 bc
       0.8271827 0.85747564 0.0063984413 -0.016562395
0000b0 c8 1b 63 3f 76 d9 b1 3d b5 92 43 3f 46 55 f9 bc
       0.88714266 0.086840555 0.7639573 -0.03043617
0000c0 e5 b5 58 37 55 95 95 bc ca ff 52 3f d3 73 61 3b
       1.2916954e-05 -0.018259684 0.82421553 0.0034401312
0000d0 7e 0a 2a bb 29 46 d1 3b 9f 48 70 3f a1 45 5f 3f
       -0.0025946195 0.0063865376 0.9386081 0.8721562
0000e0 4c 39 21 3d e8 6c 73 3f b3 d3 63 3f c1 d6 5b bc
       0.039361283 0.9508805 0.889949 -0.013417901
0000f0 03 ed 56 3f 26 19 61 bf 3e f0 50 3f 96 f6 47 bd
       0.839554 -0.87929 0.8161658 -0.048819147
000100 e9 3b fc 39 06 c6 a2 bc 2f 4d 5c 3f 30 16 14 bc
       0.00048109822 -0.019869816 0.8605527 -0.009038493
000110 64 84 61 3f 58 91 a4 bc 6d c3 54 bf 81 80 6e 3f
       0.8809264 -0.020088837 -0.83110696 0.9316483
000120 7e 7a 52 bc 0c 2c 6c 3d ad 12 15 3b ec d7 50 3f
       -0.012846587 0.057659194 0.0022746727 0.8157947
000130 eb b3 3c bd 4a ff 61 3f 24 95 80 bc bd 83 80 3f
       -0.04607002 0.88280165 -0.015696116 1.0040203
000140 95 35 60 3f 4f 80 5f 3f c6 08 60 3f ef f4 96 bc
       0.8758176 0.8730516 0.8751339 -0.01842734
000150 31 22 20 bb e6 cd 65 3f 8d df 73 3f 5b ff 61 3f
       -0.0024434442 0.897673 0.95262986 0.88280267
000160 6d 28 23 bd 2b 90 c5 3e 85 96 3f ba 55 ba d1 3a
       -0.039833475 0.38586554 -0.0007308501 0.0016000966
000170 9b 97 13 bd d8 29 64 3f 58 d0 10 3b 52 d5 63 bd
       -0.036033254 0.8912635 0.0022096839 -0.05562336
000180 1f a4 27 bd 25 db 05 3f 1b 28 f5 3b 75 5c 6b 3f
       -0.040928002 0.52287513 0.0074815876 0.91937953
000190 16 a7 79 3d 5a 8a 5a 3f ab 39 67 3f 94 70 bf bc
       0.06095036 0.8536736 0.9032237 -0.023369111
0001a0 89 40 63 bf 11 51 54 3f 97 f0 49 3f d8 18 5c 3f
       -0.8877035 0.829362 0.78882736 0.8597541
0001b0 0b 41 34 3d d9 28 73 3f dd b7 57 3f 33 07 61 3f
       0.044007342 0.94984204 0.8426493 0.8790161
0001c0 b7 d3 29 bd 0a f4 56 3f e5 03 4f 3f 09 a0 1d bd
       -0.041461673 0.83966124 0.8086532 -0.0384827
0001d0 60 62 c6 bc f8 8a 68 3f 17 b1 47 3f cb 64 d6 bc
       -0.02421683 0.9083705 0.7800459 -0.026171109
0001e0 0a 09 fb bc 19 54 82 bf 97 20 43 bc 8b 02 8f bf
       -0.030643959 -1.0181915 -0.0119096255 -1.1172651
0001f0 66 fa 22 bf 0a 25 4e 3f 20 5d 34 bd 11 88 5f 3f
       -0.6366333 0.8052527 -0.044034123 0.87316996
000200 37 82 8c bc 35 ae 02 bd 00 c7 66 3f 9e db 01 bd
       -0.017151935 -0.031904418 0.901474 -0.031703584
000210 48 c5 e6 bc 28 d3 96 3c d6 34 77 bf 28 84 27 bd
       -0.028170243 0.018411234 -0.96564996 -0.04089752
000220 b8 15 55 3f 35 4f 61 bf 81 cc 58 bc 32 55 2b 3c
       0.83236265 -0.88011485 -0.013232351 0.010457324
000230 75 cd 61 3f 4e cb b1 bc ab 49 ee bc 1d da 06 bd
       0.8820413 -0.021703389 -0.029087862 -0.032922853
000240 5d cc 65 3f 81 a5 69 3f 2a e9 26 3a 52 ad 1c bd
       0.8976496 0.91268164 0.00063671416 -0.03825123
000250 13 f9 52 3f 91 2b 5f 3f f3 d4 c3 bc 41 5c 67 3f
       0.8241131 0.8717585 -0.023905253 0.90375143
000260 03 68 12 3d 6d fe 2a bd 37 84 48 bf 6a b0 6a 3f
       0.035743725 -0.041746546 -0.78326744 0.91675436
000270 97 76 5b 3f c9 e4 35 ba 01 10 58 3f 3c 2e 5e 3f
       0.8572783 -0.00069386937 0.8439942 0.867893
000280 cf a1 61 3f 2b 4a 17 bc 7a 54 58 3f f0 48 61 3f
       0.88137525 -0.009233992 0.845039 0.8800192
000290 19 13 53 3f d7 0d 5e 3f f3 c2 5e 3f 9c df 66 3f
       0.82451016 0.8673987 0.8701622 0.9018495
0002a0 3f c2 5f 3f 77 82 72 3f 97 3a 7d bf af 59 5f 3f
       0.8740577 0.94730324 -0.98917526 0.8724622
0002b0 c2 80 df bc 3a 5d 7d bc b3 26 60 3f d1 fc 45 3f
       -0.027283076 -0.0154641215 0.8755905 0.7733889
0002c0 7f d7 18 bd 26 d5 29 3c 51 eb 70 3f ca e0 5e 3f
       -0.037314888 0.01036576 0.94109064 0.8706175
0002d0 aa 9e 40 bd e3 7f 40 bc bb b7 6c 3f 79 22 1a bd
       -0.047026314 -0.011749241 0.9246785 -0.037630532
0002e0 0b e1 d9 3c 6b f8 59 3f 43 8c 92 bc 4d ec ed bc
       0.026596567 0.8514468 -0.017889148 -0.029043341
0002f0 52 21 01 bd 86 84 45 3f d3 0e 51 3f c0 06 0b 3b
       -0.031525917 0.7715534 0.81663245 0.002121374
000300 92 41 30 bb 0a d6 31 bf 55 cd 5a 3f 66 a5 ca bc
       -0.0026894552 -0.6946722 0.8546956 -0.024737071
000310 0f 9e 56 bd 0a 3f 21 bd 27 e0 9c bc b9 a2 61 3f
       -0.05239683 -0.03936676 -0.019149853 0.8813892
000320 85 ac ea bc 10 5e 24 bc 9f 12 60 bf 13 1e f2 bc
       -0.028646717 -0.010032192 -0.87528414 -0.029555356
000330 17 b6 70 3f 29 9e 6c 3f 45 9f df bc 0f 2e 5e bf
       0.9402785 0.92428833 -0.027297625 -0.8678903
000340 e0 58 4a 3f 79 49 78 3f 4a c9 ea bc db 7e c2 bc
       0.7904186 0.9698711 -0.028660435 -0.02374213
000350 b0 6a 44 3f 27 ec 4d 3f ec af 4a 3f 2a 9f fb bc
       0.7672529 0.80438465 0.79174685 -0.030715544
000360 50 7f c1 bc ec da 69 3f 67 29 29 bd 9c 9c 63 3d
       -0.023620278 0.91349673 -0.04129925 0.055569276
000370 8f 33 4d 3f 07 f2 62 3f 8c ca 51 3f 7a 5c e8 bc
       0.801568 0.88650554 0.81949687 -0.028364409
000380 8b 43 5b 3f d5 55 72 bc ea ce 5a 3f a2 c5 54 3f
       0.8564994 -0.014790972 0.85471976 0.83114064
000390 16 40 64 3f e7 07 5c bd 1e 3f ce bc e0 a9 6c 3f
       0.8916029 -0.053718474 -0.025176581 0.9244671
0003a0 76 9c 68 3a 53 2c 25 bd 90 c0 41 3f 40 45 56 bc
       0.0008873412 -0.040325474 0.7568445 -0.013078034
0003b0 7a 7f 7c 3f 76 86 69 3f 51 5a ac bc 01 21 65 3f
       0.98632014 0.91220796 -0.02103916 0.89503485
0003c0 7e f9 ab 3c 09 4d 71 3f f3 f8 55 3f c2 80 dd bc
       0.02099299 0.9425817 0.8358299 -0.027038936
0003d0 20 95 a0 bd 3e b4 26 bd e6 b7 dc bc 8e 96 05 3c
       -0.07840943 -0.040699236 -0.026943158 0.008153571
0003e0 ad 53 50 3f d7 58 2d bd 4e ff 3e 3f 5e 3f 3b bb
       0.8137768 -0.042321052 0.74608314 -0.0028571705
0003f0 62 ef 08 3a 36 d6 73 3f 82 15 43 bd 40 4d 59 3f
       0.0005223659 0.95248735 -0.047627933 0.848835

fc_advantages.weight f4 [256, 128]
000000 34 2e 64 3e 59 7a c4 3d fb 58 f4 3d 25 bb df 3d
       0.2228325 0.095936485 0.11931034 0.10924367
000010 4c 6d 07 3e f3 51 08 be 3b cc 9a 3d e2 4f 6f 3e
       0.13225287 -0.13312511 0.07558485 0.23370317
000020 b4 bf 52 bf ae 9d 4d bf 08 54 11 be 5b 66 41 3e
       -0.82323766 -0.80318725 -0.14192212 0.18886702
000030 98 34 bd bd 7e b1 8b bd 2a 92 89 bc f3 6a 91 3d
       -0.09238547 -0.06820963 -0.01679333 0.07100477
000040 4a de e8 3d 5a 27 f9 3d 4b d0 bb 3d a6 3f 3d 3e
       0.11370523 0.12165709 0.09170588 0.18481311
000050 b9 a3 31 bf ce dd be 3d 82 47 20 3d 1e 17 6a 3e
       -0.69390446 0.0931965 0.039130695 0.22860381
000060 0b e9 0a bf 6e 92 48 3e ba f6 de 3d 66 09 1e 3c
       -0.54261845 0.19587108 0.10886903 0.009645795
000070 01 58 66 bf 8b 74 a6 3e 0f 4a 18 bf 8b fa 27 bd
       -0.89978033 0.3251079 -0.59488004 -0.04101042
000080 8d bb b8 bf fb 7e 40 bf a1 42 47 3e bb e5 8a bd
       -1.4432236 -0.75193757 0.1945901 -0.06782099
000090 2a 06 b1 3e d6 ec a5 3d 86 a7 0b bd 06 9c 1c bf
       0.34575015 0.081018135 -0.03409531 -0.6117557
0000a0 44 71 d8 3d c5 bf 0d 3e ca 13 4f be 2f 7f 6a 3e
       0.10568479 0.13842686 -0.20222393 0.22900079
0000b0 d6 50 97 be b0 1d ff 3b 51 0f 14 3e 20 3f 51 3a
       -0.2955386 0.0077855214 0.14458968 0.00079821236
0000c0 d3 3a 1d 3e a1 0b a3 3d e9 65 e6 3d f9 df 03 3e
       0.15354471 0.079612024 0.112499066 0.12878408
0000d0 a5 26 10 bf af 75 78 3e b5 3c 32 3d 75 e6 b0 3d
       -0.56308967 0.24263643 0.043514926 0.08637706
0000e0 8b 27 94 bc 4c de c7 3d 84 47 8d be d1 9f f2 be
       -0.018085262 0.09759197 -0.27593625 -0.47387555
0000f0 98 f9 1a 3e 06 9f 5f 3e 39 ca a5 bd 5e 16 66 3c
       0.15134275 0.21838006 -0.080952115 0.014043419
000100 f1 e3 43 bc fe 2e 9b bf a0 f8 90 be 25 ee fc 3d
       -0.011956201 -1.2123716 -0.28314686 0.1235011
000110 62 8a 51 3d 77 98 0e 3e 06 1e b9 3c 1e db f9 bc
       0.051157363 0.13925348 0.022597324 -0.030499991
000120 71 4f 30 be 29 60 9a 3d 19 ab 97 3d c6 13 3b 3e
       -0.17217804 0.07537872 0.07405681 0.18269262
000130 02 8f f6 be 65 57 21 3e d3 0a 77 3e d9 9e ba bd
       -0.4815598 0.15755995 0.24125223 -0.09112329
000140 63 bb 01 3e b8 72 47 bf 60 5d 9f 3d 7a 0d b0 bf
       0.12669139 -0.7790942 0.07781482 -1.3754113
000150 38 85 1b bf c4 02 e6 be 45 7a 4e bd 1b 29 f1 be
       -0.6075015 -0.44923985 -0.050409574 -0.47101673
000160 a1 e5 39 bf ff d5 2f bf a2 2b 99 3d 11 64 10 3e
       -0.7261601 -0.6868591 0.074790254 0.14100672
000170 bb f0 89 be 6a 29 ce bc ca 97 ec 3d a0 62 a0 3d
       -0.26941475 -0.025166232 0.11552389 0.07831311
000180 1f 8d 96 bf e6 7c 1f 3d 78 4c b1 bd b4 26 b8 3d
       -1.1761817 0.03893747 -0.086571634 0.08991757
000190 ec ea 84 3d 1e fa c0 be 21 16 30 3e 3f 09 cf 3e
       0.0649012 -0.37690824 0.17195942 0.40436742
0001a0 e3 db 00 3d c3 e7 da 3c 09 7a 83 be 6a 0e 17 bd
       0.0314597 0.02672184 -0.25679043 -0.03687898
0001b0 7b a7 2c 3e 38 81 91 bf 70 f2 96 3d 8e 0d 6b 3e
       0.16860764 -1.136756 0.0737046 0.2295439
0001c0 c0 7c 44 3e fd 49 a3 3c 6b af 47 bd 3e 7f 7e bf
       0.19188213 0.019932741 -0.048751276 -0.99412906
0001d0 d6 13 40 3e 64 88 c4 be 18 53 cc 3d e2 c0 60 be
       0.18757567 -0.38385308 0.099767864 -0.21948579
0001e0 33 af 07 3e 74 ed 16 bd 6f 02 df 3d 12 d8 46 3d
       0.13250427 -0.036847547 0.10889136 0.048545904
0001f0 71 11 9e 3d 1f 2b 44 3d ef 99 4c 3e e2 e8 89 bf
       0.077181704 0.047892686 0.19980596 -1.0774195
000200 92 92 cc bd 6b 31 fc 3b 86 cf 67 bd 37 55 7d 3d
       -0.099888936 0.007696321 -0.056594394 0.061848845
000210 5e 03 80 bc 78 cc e7 3c 6f 4d 30 bd 4a c7 07 3c
       -0.015626606 0.02829574 -0.043042596 0.00828726
000220 ca ba b8 bd 1c 8f 8b 3c 2b 45 6c 3d e2 d3 88 3d
       -0.09020002 0.017036013 0.05768315 0.066810384
000230 8e ae c9 bb 18 eb 10 3d 31 b2 5a bc 3a a6 be bd
       -0.0061548417 0.035380453 -0.013348148 -0.09309049
000240 61 9f c9 bc c2 76 74 bd 7a b5 46 bd 56 17 8e 3c
       -0.02461213 -0.05968357 -0.048512913 0.017345112
000250 56 6f 30 bc c2 0f 08 3d 58 56 d3 3c 2a db 8f 3d
       -0.010768732 0.033218153 0.025798008 0.07024224
000260 df 1b f0 3c a6 f8 55 bd 85 f8 8f bd f1 69 8d bb
       0.029310165 -0.052239083 -0.07029823 -0.0043156077
000270 84 66 85 bd 52 0d f2 3c e5 7a 9b 3d fc 9d ad bd
       -0.06513694 0.029547367 0.075918 -0.08477399
000280 42 3c 99 3d ed 48 b9 bd 90 8c 2a 3c 77 71 c3 bd
       0.074821964 -0.090471126 0.010409489 -0.09543126
000290 f4 8d 69 bd 0a 4c 49 bc 5a 20 13 bd 77 07 76 ba
       -0.057020143 -0.0122861955 -0.035919525 -0.00093852676
0002a0 4b bc 36 3c 04 47 3c 3d e6 8e 41 3d 76 08 3f bc
       0.011153291 0.045966163 0.04725542 -0.011659732
0002b0 73 d7 d5 bc ae c1 ca bd c6 68 8c 3d 94 3e 3d 3c
       -0.02610371 -0.09900223 0.068559214 0.011550564
0002c0 45 a0 38 bd 08 82 26 3d a2 d6 c9 bc 24 d9 f2 bc
       -0.04507472 0.04065135 -0.024638478 -0.029644556
0002d0 f9 52 8b bd 2b 8e 67 3d fb de a2 bd 52 e2 82 3d
       -0.06802935 0.056532066 -0.079526864 0.063908234
0002e0 c2 59 37 bd 5a dc db 3c 5e 84 ad bd 0b 32 af bd
       -0.044763334 0.02683847 -0.08472513 -0.08554467
0002f0 fd 37 a0 3d 58 dc 86 3d 37 08 e7 bb 48 00 ba bc
       0.07823179 0.06584996 -0.00705054 -0.022705212
000300 4f 75 ba bc d4 80 c1 bb 6f 7c 8a bc 38 17 9d bc
       -0.022761015 -0.00590525 -0.016905038 -0.01917611
000310 1a ff 52 bd 66 13 02 3d 0f ea 8c bd 9a c9 98 bd
       -0.051512815 0.03175678 -0.06880581 -0.074603274
000320 fc a7 f9 3c ec 7a 9f bc f9 24 34 3d 19 9b c2 bd
       0.030475609 -0.019467793 0.043980572 -0.09502239
000330 0f eb 03 bd 8f cb 17 bd 26 0c 58 3d 82 7d 31 bd
       -0.03220659 -0.037059363 0.05274596 -0.043332584
000340 cd cb 2b 3c 39 84 8f 3d e1 df 96 bd 5d 75 97 3c
       0.010485602 0.07007641 -0.0736692 0.01848858
000350 e6 4f 13 bc a1 c0 35 bd aa ed b8 3a 56 75 90 bd
       -0.008991217 -0.04437316 0.0014108915 -0.0705363
000360 fe 66 e9 bc 6f 51 8c bd 20 ec 8a 3d ee 68 39 3c
       -0.028491493 -0.0685147 0.067833185 0.011316521
000370 84 7e a0 bc 63 99 a2 3c 9b ca 11 3a e1 75 a5 bd
       -0.019591577 0.019848531 0.00055615016 -0.08079124
000380 88 bd d7 3b d6 e0 b2 bd 4c 46 81 bd af 76 34 bb
       0.006583873 -0.0873429 -0.06312236 -0.0027536561
000390 0e 19 83 3d ce 4a 4e 3d e3 49 e9 bc 13 5c 41 bd
       0.06401263 0.050364308 -0.028477615 -0.04720695
0003a0 ec 4d cb 3c 77 1d 34 bc 88 22 8e bd c9 b9 bc bc
       0.02481743 -0.010993353 -0.0694018 -0.023037808
0003b0 92 72 7b bc 3c 49 d6 bc 47 b5 76 3d 8d e4 4c bd
       -0.01534714 -0.026157968 0.060231473 -0.05002265
0003c0 10 bc bd bd 69 84 d3 bc 19 40 cb 3c 08 07 1e bd
       -0.09264386 -0.025819974 0.024810838 -0.038580924
0003d0 c1 82 b1 3c fd ea 68 3c cd aa 8b bd 16 d2 88 3c
       0.021668794 0.014216182 -0.06819687 0.01670174
0003e0 98 79 33 3d 86 f1 5d 3d e8 c6 d4 bb d8 68 c8 3c
       0.043817133 0.054185413 -0.006493438 0.024464056
0003f0 0c 23 2e bd 03 dc 83 bc 05 a6 8a 3d a4 1b 29 bd
       -0.042513892 -0.01609612 0.06769947 -0.041286126

fc_advantages.bias f4 [256]
000000 24 23 43 3e 74 f5 8f bd 56 96 d5 bd 93 21 8d bd
       0.19056374 -0.07029238 -0.10429065 -0.068911694
000010 7a da 88 3d d7 e0 3d bd f7 68 a6 3c 78 16 cf bc
       0.06682296 -0.046357002 0.020313723 -0.025279269
000020 31 d2 5f 3d 9e c0 db 3d e7 ee b3 3d 2e 96 4e 3d
       0.054643814 0.10730098 0.087858014 0.05043619
000030 be 7c e1 bc d7 64 0e 3b 62 0b a8 3d 9b 75 ad bc
       -0.027525302 0.0021727586 0.08205296 -0.021174243
000040 83 f3 73 3d 8b 00 db 3b 13 79 7c bd 1e c2 bf 3c
       0.059558403 0.0066834143 -0.061638903 0.023407992
000050 83 f3 69 3d b1 83 d4 3d ae 67 4f 3e 10 3b b9 3c
       0.057116996 0.10376681 0.20254394 0.022611171
000060 45 00 8e 3d 34 90 58 3d ea d0 a4 bd b4 b2 ad bd
       0.06933645 0.052871898 -0.0804766 -0.084813505
000070 90 f3 3c bd 47 ce 18 3e 52 e5 43 3e 3c d8 57 bc
       -0.046130717 0.14922439 0.19130448 -0.013174113
000080 e2 e8 8f 3d 5e 62 2e 3e 90 59 22 bd 10 72 67 3e
       0.07026841 0.17029712 -0.039636195 0.22602105
000090 51 95 99 bd 0c 82 2d 3e ee a5 88 3d af f1 f6 3d
       -0.07499183 0.1694414 0.066722736 0.12057816
0000a0 3a 06 98 3d fa e7 ea 3c ef 43 37 3e 53 c2 db bb
       0.074230626 0.028675068 0.17897008 -0.006706515
0000b0 bc 58 bb bb 3f cb 99 3d 82 d1 01 3e 84 02 bc 3d
       -0.005717365 0.07509469 0.12677577 0.09180167
0000c0 f9 a1 43 bd 49 a1 49 3e e2 5d a1 3d b6 d2 2d bd
       -0.04776189 0.19690432 0.07879235 -0.042437278
0000d0 d0 f7 41 3c bb 9c 9c bd a2 33 4a bd 8b 26 43 3e
       0.011838868 -0.076470815 -0.049365647 0.19057672
0000e0 ae e3 f5 3d 6c 11 0e 3e ad d4 55 3e 3d cb 5f 3e
       0.12006317 0.13873833 0.2088191 0.21854873
0000f0 1c ca 40 bd 37 64 0f 3e bb f9 97 3c 60 4c 14 bd
       -0.047067747 0.14003073 0.018551698 -0.03620565
000100 72 f5 16 3e e7 79 17 3d a1 f2 1a 3e 98 b9 6e 3d
       0.14742067 0.03698149 0.15131618 0.058282465
000110 ea 84 9e bd 7e 7c e0 3d a4 fa 9f 3d 45 ac ec 3d
       -0.07740195 0.10961245 0.07811478 0.11556295
000120 f3 0c 9b 3d 78 d9 ba 3d af ee 94 3d 4e dd 2e bd
       0.07570829 0.0912351 0.07272088 -0.04269152
000130 3c c1 15 3e bb 2a ac 3d 45 bc 1c 3e 08 16 f6 3d
       0.14624494 0.08406588 0.15306194 0.12015921
000140 44 c4 3a 3e 5f cf 8b 3d d0 57 55 3e dd 05 f0 3d
       0.18238932 0.06826662 0.20834279 0.11719868
000150 0f 5f 08 bd 6d c0 71 bd 68 cc 5e 3d 9e d5 50 3d
       -0.03329378 -0.059021402 0.054394156 0.05098497
000160 97 1c 28 bd a5 d7 16 3e 66 8a e4 3d fb 0d 10 3e
       -0.04104289 0.147307 0.1115921 0.14067833
000170 06 a9 6b bc 2e f2 41 3d 36 68 4d 3e 2e 28 b1 3c
       -0.01438356 0.0473501 0.20059285 0.021625604
000180 05 bb 92 3d 4c 15 91 3d 4a 52 75 bd d1 26 04 bc
       0.071645774 0.0708414 -0.05989293 -0.008065895
000190 38 7a eb 3d be 56 ee 3b 56 03 ac bd dc 3d 44 bd
       0.11497921 0.007273524 -0.08399074 -0.047910556
0001a0 8c b9 c0 3b 9a cd 91 3d 8b 9d f9 bc 83 4b 57 3e
       0.005881494 0.071192935 -0.03047063 0.21024899
0001b0 4a c7 56 3e c1 58 39 39 04 8a 5c 3c ec 4f 4c bd
       0.2097446 0.00017676038 0.01346064 -0.049880907
0001c0 ad 0a 18 3e 06 22 6b bc a8 26 a2 3d 91 31 64 bd
       0.14847822 -0.014351374 0.07917529 -0.055711333
0001d0 5b 6e f5 3d 4f 45 b5 bd 73 5d c0 3d ee b5 fb 3d
       0.11983939 -0.0885111 0.09392824 0.1229056
0001e0 ce 42 1d 3e 16 a9 88 3d 54 9f bc bd 90 ab 08 3d
       0.15357515 0.066728756 -0.09210077 0.03336674
0001f0 3e ee 39 3e 77 27 2c 3d 24 26 e9 3d 55 59 76 bd
       0.18157288 0.042029824 0.11384228 -0.060143787
000200 ea 36 25 3e b1 a2 5f 3e 5e c5 43 3e 1c 93 fd 3d
       0.1613423 0.21839406 0.19118258 0.123815745
000210 a2 4d a0 3c a8 17 87 3d 35 52 0b 3d 25 74 01 3d
       0.019568268 0.06596309 0.034013946 0.031604905
000220 72 4f 11 3e 4b 82 6d bd 6f fa 9f 3d de 9e d0 3c
       0.14190462 -0.057985585 0.07811438 0.025466379
000230 78 90 c5 3c d6 c8 45 3e 7b ac 37 3e ef 08 9a 3d
       0.02411674 0.19314894 0.1793689 0.07521235
000240 76 e4 0b 3e c7 2c 73 3d 86 62 aa bd f6 6c 8a 3d
       0.1366137 0.059368875 -0.08319573 0.06759064
000250 85 66 36 3e bb 5f 02 3e 18 66 27 3e ac 09 86 3d
       0.17812546 0.12731831 0.1634754 0.065448135
000260 e6 28 10 3e cd bc 58 3e af d1 a0 bd 9e e4 f1 3d
       0.14078102 0.21165772 -0.07852494 0.118111834
000270 84 7c 4b 3e 1d 7d a7 bb bf c2 27 3d 2c f8 51 bc
       0.19871718 -0.00511135 0.04095721 -0.012815516
000280 55 ef 4b bd 28 8e 81 3d a5 9c 3e 3e 3e ea a8 3d
       -0.04978879 0.06325942 0.18614443 0.08247803
000290 e7 4a 8d 3d bb cd 1d bd 31 19 33 3e b4 70 b2 bc
       0.06899052 -0.038526278 0.17490079 -0.021782257
0002a0 b0 e7 62 3d 90 28 09 3e 68 d7 8d 3d 2d d1 27 bd
       0.055396736 0.1339438 0.06925851 -0.04097097
0002b0 f5 67 57 3e 87 3f 83 3d a4 81 90 3d 43 78 05 3e
       0.2103575 0.06408601 0.07055977 0.13034157
0002c0 6a 0f ad bd f7 55 d3 3d 8f e3 4e 3e 42 5c 31 bd
       -0.084502056 0.10319131 0.20203994 -0.043300875
0002d0 42 81 24 3e d5 1c 92 bd 29 e5 a3 bd 47 df 48 3e
       0.16064933 -0.071344055 -0.08002693 0.19616424
0002e0 e4 d8 9d bc 3e 02 45 3e 40 86 a1 bc af 06 f6 bd
       -0.01926846 0.19239137 -0.019717336 -0.120129935
0002f0 23 8b 41 3e 1b ac f3 3d 0d b7 7f bc 4a 59 c3 bd
       0.18900733 0.11898061 -0.015607608 -0.09538515
000300 06 13 4b 3e 22 ae 47 3e f1 29 e5 3d 52 74 26 3e
       0.19831476 0.1950002 0.1118964 0.1625531
000310 88 61 ef bd b0 0b ab bd 9f bd d8 3c cc f5 e0 bc
       -0.116885245 -0.083518386 0.026457606 -0.027460955
000320 66 51 8c 3d 15 fd 19 3e cd 17 aa bd c2 fd 39 3e
       0.06851463 0.1503795 -0.08305321 0.18163207
000330 bb 1c 56 3e 14 dc 14 3d 44 ae 03 3e 53 bc e4 3d
       0.20909397 0.036342695 0.12859446 0.111687325
000340 9b 29 59 3e 8b 26 a5 3c ff 03 9a bd 02 d6 18 3e
       0.21207277 0.02015998 -0.075202934 0.14925388
000350 f6 f8 5e 3d 5c 81 77 3d 54 92 47 3e 30 15 2c 3e
       0.054436646 0.0604261 0.19489413 0.16804957
000360 f3 cd e6 bc fb 16 a7 3d 69 3e 9c 3d 59 11 03 3d
       -0.028174376 0.0815868 0.07629091 0.031998966
000370 f9 d6 10 3e 01 b1 b5 3b 49 8e 2f 3e 19 91 4a 3d
       0.14144506 0.005544782 0.17144121 0.049454782
000380 89 9c 9f 3d 62 a8 ba 3c 6f 07 a5 bd 1a ac 2d bd
       0.077935286 0.02278537 -0.080580585 -0.042400457
000390 81 8c 8d bb dc 2e 25 bb 3e 3e 17 3d 86 c8 fe 3d
       -0.004319728 -0.0025204932 0.036924593 0.124405906
0003a0 f6 b4 b5 bc 1f 14 f6 3d 82 55 74 3d b2 21 ac bd
       -0.022181015 0.120155565 0.05965186 -0.08404864
0003b0 bc 27 85 bd a3 38 46 3e 4a 58 9d 3d f1 ff ba 3d
       -0.06501719 0.19357543 0.076828554 0.09130848
0003c0 1f 08 5f 3e e6 59 09 bc e4 4a 00 bd 39 66 34 3e
       0.21780442 -0.00838325 -0.03132142 0.1761712
0003d0 05 f7 f2 3d 29 0c 9d 3d 85 6e 66 3d c5 84 1f 3e
       0.118635215 0.07668335 0.056257743 0.15577991
0003e0 59 cc a7 3d be f5 54 3e 3b 4f b5 bd 6c 81 43 3d
       0.08193273 0.20796868 -0.08853003 0.04773085
0003f0 71 20 35 3e b7 49 b5 bd 42 8e 29 bd 72 78 b2 3c
       0.17688157 -0.088519506 -0.041395433 0.021785948
